policy_network.pkl (torch, 74958 bytes, 6 tensors)

layers.0.weight f4 [128, 2]
00000000: 2343 03be 79a7 0c3f 6a24 c0be 4ae0 1fbf
00000010: 84f0 b1be c150 903e ff55 80ba a5c4 373f
00000020: 5d01 8dbd 3e9e a93e 6290 0ebe ffcc dbbc
00000030: d3dc 25bf 8ca4 8fbe 224b 05be c45b 393c
00000040: b953 763e b585 163f f7eb fcbe 1e46 88be
00000050: e731 5d3e 0417 323f 26b7 efbc fbd3 2c3f
00000060: 672e 5cbe 9ce8 723c 175c 003f a63f 49bf
00000070: ba04 05bf d154 22be 82ff 0dbe 2d21 463f
00000080: 4b01 07bf 6f9a 97be 574a cbbe 3b41 50bf
00000090: 60c1 d9be 17ac 553f b218 813e 7159 fd3e
000000a0: 22f8 d33c 707c efbe 9c93 8fbb 088f 4cbf
000000b0: 8486 05bf 2d89 50be fafd a83e f747 153f
000000c0: 45e4 a3be dbf6 34bd a172 bd3e f318 5d3f
000000d0: 46ea d13e 190e 943d f7f7 a83e 6839 05bf
000000e0: b2a4 db3c f332 25bf 9a3a 64be 5198 62be
000000f0: e829 8c3e fe37 e73e 8cc1 e5be 02dc 123e
00000100: adf5 fa3e 2457 dcbd 6a3d 533c fcd1 ad3e
00000110: df96 963e d5f0 563f 1998 0dbf c6e3 c9bd
00000120: d6cc 583e 1fb2 363f f283 003f d171 573f
00000130: d1ab abbb 4b23 40bf d0a2 923b e46d 12bf
00000140: 8bd7 1dbf b4b6 393f a0a6 cd3e fb67 47bf
00000150: 5670 d1bb e6b9 4abe c6f7 56bc ce11 eebe
00000160: b899 833d fe5d 0cbf 4e06 563e 76da 023f
00000170: 0e51 1d3f 6505 063e ea1d 35bf 38f1 81be
00000180: bf8e e43e 13ed bb3d de8c 20bf 4d91 a4be
00000190: 55ad 453f ce89 773e 9b26 83be 1d23 68bd
000001a0: f298 32bf ebab c3bd c8bc e2be b0fe 2cbf
000001b0: 19d3 02be 2bcf c23e 1fcf 7bbe c6b2 0c3f
000001c0: 87cc 89be a7e3 403f 289c be3e 388c 33bf
000001d0: bffe 11be 5d58 b73d 2a5e c2bc 9c4e 9e3e
000001e0: 522c c33e 868b 903d 73c5 d2be 58ff 053f
000001f0: ce8c 2dbf 1ed2 78be 63cd 20be 9047 e4be
00000200: 6572 30be 9d8d 25bf 49e2 f0bd db2b 243e
00000210: f37c 07bf 04d5 42bd 7c19 133f b898 d7bd
00000220: f487 0e3c 7069 e5bd e037 6a3c e152 143f
00000230: 4b28 3c3f 9687 883e b81d 423f 9db7 f3bd
00000240: e16e 24bf 815b 54be b29e 133f e7bf 013e
00000250: b528 8dbe 8f73 50bf 286c 34bf 3fe9 17bf
00000260: 2dac 04bd 7504 053f 6b46 9b3e 07e5 48bf
00000270: 9208 9b3e cd21 2cbf 20b1 8fbc c0f4 d1be
00000280: 2ede 1ebe 17c8 eabd e70a e0be 8984 39bf
00000290: 80a5 48be 2a04 a0ba 2a0b a6be 7d34 7b3e
000002a0: 0f15 2cbf f115 b9bd 14a4 3e3f 95f4 43be
000002b0: 3925 3d3f 5c9d 1d3e 3737 2ebf 124c dc3e
000002c0: 0b21 9ebd db5a ebbe 6903 b93e 78f3 36bf
000002d0: 48dc acbc d9ac 4cbe f945 1a3f cef1 f43d
000002e0: e785 a03e 78de ba3e 693b 2abb ca67 88be
000002f0: 0d13 28bf 3bd7 f23e ee8a c93e 55e6 373f
00000300: 1c32 02bf d2be c2bc 7285 d9be 6704 64be
00000310: c693 e6be 2932 333e 0761 e0be d4a9 45bd
00000320: 84c7 cb3b 9c30 193f 0464 abbe 47ce 21bf
00000330: f759 c0be 2542 413f 4cd4 4fbd ff9d 403f
00000340: 1244 b03e 97ac 683d 1358 04be cdf4 f9be
00000350: 325b 75bb 1eee a4be d9a4 e13d 62a1 373e
00000360: f7b2 04bf 6c34 6cbe 223a de3e 1945 28bf
00000370: 2ca9 083d 8c55 573f cb2d c23e 1d24 8b3d
00000380: ed5f 32bf 2c2b d43e 0828 fcbe 92de 09be
00000390: 30cf eebe 4350 b8bc d0a4 12bb 3c17 373f
000003a0: 54b1 4e3c 2e50 483f 2b2e ab3e 5753 00bf
000003b0: bc6d 613e 4f13 1dbf 515a f8be 4199 953e
000003c0: 9f78 aa3d bd80 2d3f 3b29 6dbe 594c 1ebb
000003d0: 83bf 7f3e 6141 4abf c76b b73e 7a5d 38bf
000003e0: 564b a23c 2714 21be 01bc cabe 4f15 bd3d
000003f0: 2723 2d3f c845 12be 2355 5bbe 8e72 2ebe
-0.1281858 0.54943043 -0.37527782 -0.6245161 -0.3475381 0.2818661 -0.0009791254 0.7178443
-0.06885026 0.33128542 -0.13922265 -0.026831148 -0.64790076 -0.28055227 -0.13016942 0.011313383
0.24055375 0.5879777 -0.49398777 -0.26615995 0.21601067 0.6956637 -0.029262137 0.67510957
-0.21502076 0.014825966 0.5014052 -0.78612745 -0.5196034 -0.15852667 -0.13867 0.7739437
-0.5273635 -0.2961001 -0.39705154 -0.81349534 -0.42530346 0.83465713 0.25214154 0.494823
0.025875155 -0.46774626 -0.00438161 -0.7990575 -0.5215838 -0.20364828 0.3300627 0.58312935
-0.32010093 -0.044180732 0.37001517 0.86366194 0.4099905 0.072292514 0.33001682 -0.5204072
0.026811931 -0.6453087 -0.2228798 -0.22128417 0.27375722 0.45159906 -0.44874227 0.14341739
0.4901556 -0.10758808 0.01289306 0.33949268 0.2941198 0.8396123 -0.5531021 -0.098578975
0.21171889 0.7136554 0.5020133 0.84158045 -0.005238988 -0.7505385 0.004474975 -0.5719893
-0.6165702 0.7254441 0.40166187 -0.77893037 -0.0063915653 -0.19797477 -0.013120597 -0.4649796
0.06425804 -0.5483092 0.20900843 0.51114595 0.61451805 0.13087995 -0.7074877 -0.25379348
0.44640157 0.09176078 -0.62714946 -0.32142106 0.7721761 0.24173662 -0.2561539 -0.05667411
-0.69764626 -0.09554275 -0.44284654 -0.6757612 -0.1277584 0.38048682 -0.24590729 0.54960287
-0.26913854 0.7534737 0.37228513 -0.7013583 -0.14257334 0.08952401 -0.023726542 0.3091935
0.3811975 0.07057862 -0.41166267 0.5234275 -0.67792976 -0.24298903 -0.15703349 -0.44585848
-0.17231138 -0.6466921 -0.117619105 0.16032355 -0.5292503 -0.04756643 0.5746076 -0.10527176
0.008699406 -0.11201751 0.014295548 0.57938963 0.7349898 0.26665944 0.758266 -0.11900256
-0.6423169 -0.20738031 0.57664025 0.12670861 -0.2757012 -0.8142633 -0.70477533 -0.5934028
-0.032390762 0.51959926 0.30327162 -0.7847447 0.30279976 -0.67239076 -0.017540514 -0.41007042
-0.15514442 -0.11463945 -0.43758318 -0.7246786 -0.19594383 -0.0012208272 -0.32430393 0.24531741
-0.6721963 -0.09037388 0.74469113 -0.1913627 0.7388492 0.15392059 -0.68053 0.43026787
-0.07721146 -0.45967755 0.36135414 -0.71465254 -0.021101132 -0.19987811 0.6026302 0.11960183
0.3135216 0.36497855 -0.0025975353 -0.26641685 -0.6565407 0.47429833 0.39363807 0.71835834
-0.5085771 -0.02377263 -0.42484623 -0.22267304 -0.45034617 0.17499603 -0.43824026 -0.048257664
0.0062188525 0.598398 -0.33474743 -0.6320538 -0.37568638 0.75491554 -0.05073957 0.7524108
0.34426934 0.05680522 -0.12924223 -0.4881958 -0.003743839 -0.3221292 0.1101777 0.17932656
-0.5183558 -0.23066872 0.43403727 -0.65730435 0.03336446 0.8411491 0.37925562 0.067939974
-0.6967762 0.41439188 -0.4924929 -0.1346381 -0.46642447 -0.02249921 -0.0022376068 0.7151983
0.0126155205 0.78247344 0.3343366 -0.50127167 0.22014517 -0.6135759 -0.48506406 0.29218486
0.08323788 0.67774564 -0.2316026 -0.0024154393 0.249754 -0.7900601 0.35824415 -0.72017634
0.019811314 -0.15730344 -0.3959656 0.0923258 0.67631763 -0.14284432 -0.21419196 -0.17035887

layers.0.bias f4 [128]
00000000: 69b0 10bf f975 d13f 5901 1bbf 382b 79be
00000010: b1cc a7be 4ba1 e83f f137 b83f 9735 0d40
00000020: bf80 263f 7a90 c3bf 5ac6 883e f974 1a3f
00000030: 8df7 2c40 6235 e73e 5d99 23bf 7567 dcbe
00000040: f591 07c0 2932 413e 7f9c 14bf 7ee5 aabe
00000050: 2f0f 943f cb54 9c3d 5eec 943e f355 4f3f
00000060: 6852 603f 46a2 debd 95d4 26bf 2c59 b73f
00000070: 0646 083f 48c9 3740 27df 6bbc b62c 1d3f
00000080: 3e26 ac3c 8abe 7c3e d422 153d 5d26 773f
00000090: 8ff3 223f 0675 1f3e 361e 4d3e 5c15 c5bc
000000a0: 8f1d 9b3f 5ae7 3ebd c7d6 8c3f f727 f7be
000000b0: 4e0d d43d e359 0c3f e83e 273c f30f 403f
000000c0: 1530 203f da83 11c0 5fee ef3e 5159 553f
000000d0: d021 833f 8b7e 63be 0a2e 37bf 7ec3 10bf
000000e0: 4aa8 543f d017 a13c 6613 a03f 6551 aa3f
000000f0: 9bf0 edbe f02f 14bf 4086 653f ef0f c53d
00000100: b2a9 743e cc64 843f 44b6 26bf 2acc b93e
00000110: 6152 0540 86ee 9b3f d5fb 3f3f 85af eb3e
00000120: 1383 833f 94d8 9fbe 9d07 9fbf 8862 dcbf
00000130: f7b9 df3f b7ce 743f d714 853e 0c7d 583f
00000140: d132 1d40 1dc8 f23f a83e 2840 7c46 d23f
00000150: b71d ab3e 7039 8cbd 4980 8c3f 31e6 5c3f
00000160: 4798 2ebf 5695 c13f 19fa 9b3f 79cd 1c3f
00000170: 96ca 99bf e1cc ce3e d7e3 1bbf d8b4 913f
00000180: c727 a63e 7200 613f 3d09 493f 471f aa3f
00000190: 1d7c bb3d 3064 fc3e 6a95 1abf 2837 293f
000001a0: 077f 02bf 7ed6 7abf 86a2 9cbe ccbf f03f
000001b0: acd0 9b3f c0b5 b03f 5b87 7d3f 865d 27bf
000001c0: aa5d 4dbf 8293 f63e a2eb e2bf b08f 373f
000001d0: e179 7abd 77f9 b6be 38f9 edbd de1e c4bf
000001e0: 8ae0 883f 7cbb da3f 356f 843f 24c3 b63f
000001f0: 5bbb 0340 d609 783e d58c 563f ba8a 3a40
-0.5651918 1.6364127 -0.6054893 -0.24332893 -0.32773355 1.8174223 1.4392072 2.2063959
0.650402 -1.5278466 0.2671383 0.60334736 2.7026093 0.45157915 -0.6390589 -0.4304768
-2.1182835 0.18866791 -0.58051294 -0.33378214 1.1567134 0.076333605 0.29086584 0.80990523
0.8762574 -0.10870795 -0.65168124 1.4324088 0.5323185 2.8716602 -0.014396465 0.6139635
0.021014329 0.2468206 0.036410168 0.9654291 0.6365289 0.15571985 0.20031056 -0.024058037
1.2118396 -0.046607353 1.1003045 -0.48272678 0.103541 0.54824656 0.010207869 0.75024337
0.6257337 -2.2736726 0.4686155 0.8333941 1.0244694 -0.22216241 -0.71554625 -0.565483
0.8306929 0.019664675 1.250592 1.330609 -0.4647263 -0.57885647 0.89657974 0.0962218
0.23892859 1.0343261 -0.65121865 0.36288577 2.083153 1.2182167 0.7499364 0.46032348
1.0274376 -0.31219923 -1.2424198 -1.7217569 1.7478627 0.9562792 0.25992462 0.84565806
2.4562266 1.896732 2.6288242 1.642776 0.33421108 -0.06846893 1.097665 0.86288744
-0.68201107 1.5123699 1.2185699 0.61251026 -1.2014949 0.40390685 -0.6089453 1.1383314
0.32452223 0.87891304 0.7852972 1.3290795 0.09154532 0.49295187 -0.6038424 0.66099787
-0.5097508 -0.9798354 -0.30592746 1.8808532 1.2173057 1.3805466 0.9903466 -0.6537708
-0.80221045 0.48159415 -1.772816 0.71703625 -0.06115139 -0.35737202 -0.116198 -1.532192
1.0693524 1.7088466 1.0346438 1.4278302 2.0583103 0.24222502 0.8380864 2.9147172

layers.2.weight f4 [128, 128]
00000000: ac64 0c3e 650f 0d3e a915 1d3d 558c 2c3e
00000010: 7efd a63d fcec 543e bf57 ad3d 4ccd 423e
00000020: 5752 9e3c 25be cdbd 56af bb3c 9b1a 513e
00000030: 2953 863e c918 503d 77fa 4cbd 1ade 2f3e
00000040: b61e eebd bd97 cf3c c3e0 463d 1116 bf3d
00000050: 2fc6 5c3e a8fe 7d3b 3914 ea3d ef06 e13d
00000060: 9a9d b93d 9452 b83d 1a0c e73c c6c8 a73d
00000070: 9968 3c3e 0d5c fb3d 401c 39bd 5c37 593d
00000080: ec7e 583d 12f5 de3d c46b 683d 6838 2f3e
00000090: b2df b03d 7050 dcbc 9b77 ba3d a12a c33d
000000a0: 40f0 123e 3f3f adbb 0e28 483e 6ef1 a9bd
000000b0: 40be 1c3d db8f d23d 69db 273a dd3d ae3d
000000c0: 30ca 1e3e 2de9 0cbe 8c7c 69bc 38d0 a43d
000000d0: 2da4 ff3d 9601 9dbd 3693 ef3d fa3d 963b
000000e0: e2bd c93c 8f97 6a3b 9bf5 1a3e 3f63 6d3e
000000f0: 2567 703a 4a01 a63d 2939 0f3d 760e 773d
00000100: 2226 3d3d 58d6 143d 8226 993d 2708 013e
00000110: a789 bb3e cb8a 323e da4f 2abc ae8f 1d3e
00000120: 171e b73d 2e6c 073e 0fcf 27be 623a cfbd
00000130: b967 c83d eab9 e13d 4170 d63d 0a76 253d
00000140: e7c7 533e 94c6 df3d fab7 663e 2fc4 ce3d
00000150: b44d f63a 807d 453d c551 fb3d 74bf 383e
00000160: 12f2 043c 82ec e03d 0b14 713e 5ae3 cfbb
00000170: 9024 f6bd fdb6 d53d f909 f5bc 2318 b63d
00000180: 4ace 8dbb 8482 243b 6599 a43c 1ab9 473e
00000190: aeee e13d fb85 d23d 5baf 003e 9fac 413e
000001a0: 1051 a53d ad10 1dbe 0754 71bc f2da 443d
000001b0: e1bd 013e 6ebe ac3c a2ec 553e 7689 b13d
000001c0: e213 8bbd 9c26 9d3c 61b9 28bd 71ab 593e
000001d0: 33cb c13c e3c2 be3d ed11 cd3d 070d d5bb
000001e0: 75eb 203e 63fd 1b3e 74d5 333e 372d 2f3e
000001f0: 896f 413e cf2e ab3d d3ea 803d de4a 543e
00000200: e7b6 823d 8c73 cf3d b6b0 193e 59af d23d
00000210: 706a 3e3d 1e6d b2bc 9144 f43d 5d40 bfbc
00000220: df3c 363c 658e 1e3e 6765 3e3d f0f7 d7bb
00000230: 66b3 04be 5f26 1b3d 6c47 563e f412 be3d
00000240: 78a4 713e f2e4 98bc f3c2 843e 01f2 543e
00000250: 4c5a 99be c4c6 11bf 1833 063d d45f 3cbb
00000260: 05c8 523d 5fb7 81ba 6fd4 6a3d d297 b8bd
00000270: 30e8 e2be 80ed f53c 616b 703d df2a 693d
00000280: fd77 873d 5c82 c23d 8946 94bc 760a 733d
00000290: e9a8 4cbd 4d57 0f3e 9b33 10bf ce85 1abf
000002a0: 71e9 4b3e e145 443e c0f5 a9be d446 f8be
000002b0: f7f1 6dbe 4d52 d9bc 0edd cf3d a77d b13d
000002c0: fcf1 4cbd 8d41 3c3e 4fa4 583d 6564 973d
000002d0: e2e4 c93c c75c 693e 53ad 153e 6bd1 183e
000002e0: 5b7c 4d3e f3c7 8a3e 8599 033e c586 61ba
000002f0: 057c 113d 238e 683d 8008 7f3d 1a03 e3bd
00000300: ba19 78be d395 a63c 8003 343e 4e5e 4a3e
00000310: 3660 03bf 2566 08be 7723 a13b b13a 313e
00000320: 921d 633d 68e6 aa3d 38d3 90be 0c28 6a3e
00000330: 56c6 753d 04bb 9c3e 3b28 713e d918 53be
00000340: 5807 89be 422d 583e 4400 9dbd 5f47 e93d
00000350: fcba 843c 6c78 3f3e d5f0 f33d 4949 323e
00000360: cbe4 1ebf 0849 afbd da97 c0be 07ac ff3d
00000370: 4ecd 263e 75b2 b7bd 0736 2d3e 9098 8abc
00000380: 4525 733d 7183 b73d 2227 b23d beec fcbb
00000390: f3bd e93d 4eb4 603d a1ff 4d3e 029e 1c3e
000003a0: f0d5 1f3e 48e3 17bf ede5 f9be fd49 f8bd
000003b0: 376a a03c f9b3 313c 97ff 843c 3d7a 003c
000003c0: b1e1 d33d 4af4 bd3c 06e5 873e 88b7 03bc
000003d0: 6d9d 1cbd 5456 193e 723a 843e c2e3 3c3e
000003e0: 9064 ffbc eb88 b03c 244f 583e eb63 d9bc
000003f0: 1edf 04bf 30bb ec3c 8664 09bd 6eac 82bd
0.13710278 0.13775404 0.038350735 0.16850407 0.081538185 0.20793527 0.08464002 0.19023627
0.019326372 -0.10046033 0.022910755 0.20420305 0.2623532 0.050804887 -0.05004355 0.17174569
-0.116269514 0.02534091 0.048554193 0.09330381 0.21559976 0.0038756523 0.114296384 0.109876506
0.09063263 0.090001255 0.028204013 0.08192591 0.18399276 0.12273417 -0.045192957 0.05303131
0.052855417 0.10886587 0.0567434 0.17111361 0.086364165 -0.026893824 0.09104844 0.09529615
0.1434946 -0.0052870805 0.1954653 -0.08298002 0.038267374 0.102813445 0.0006403239 0.08507893
0.15506816 -0.13760825 -0.014250886 0.08047527 0.12482486 -0.07666318 0.11698 0.004585025
0.024626676 0.0035795902 0.15132754 0.2318239 0.0009170643 0.081057146 0.03496662 0.060316525
0.046178944 0.036337227 0.07478048 0.12600766 0.36628458 0.17435758 -0.010395015 0.1538684
0.08941286 0.13224861 -0.1638758 -0.101185575 0.097854085 0.110217884 0.104706295 0.040395774
0.20681725 0.10926548 0.22531119 0.10096013 0.0018791468 0.04821539 0.12271456 0.18041784
0.008114355 0.1098261 0.23542802 -0.006344241 -0.120186925 0.10435293 -0.029911982 0.088913225
-0.00432757 0.0025102207 0.020092675 0.19504204 0.11031853 0.10279461 0.12566893 0.18913506
0.08072102 -0.15338393 -0.014729506 0.048060365 0.1267009 0.021086898 0.2089105 0.08668797
-0.06790902 0.01918345 -0.041192416 0.21256806 0.023656463 0.093145154 0.10013185 -0.006501797
0.1571482 0.15233378 0.17561895 0.17107092 0.18890204 0.083585374 0.06294789 0.20731685
0.06382542 0.10129461 0.15008816 0.10287351 0.046488225 -0.021780547 0.119271405 -0.02334612
0.011122911 0.15484007 0.046483424 -0.0065908358 -0.1295906 0.03787839 0.20925683 0.09280959
0.23597896 -0.018663857 0.25929984 0.20795442 -0.29951704 -0.5694392 0.03276357 -0.0028743641
0.051460285 -0.0009896568 0.0573315 -0.090133324 -0.4431777 0.030020475 0.058696155 0.05692565
0.06614683 0.0949752 -0.01810004 0.05933615 -0.049965773 0.13998146 -0.56328744 -0.6036042
0.1991327 0.19167282 -0.33195305 -0.48491538 -0.23236834 -0.026528502 0.10149585 0.086665444
-0.05003546 0.1838438 0.052891072 0.073921956 0.024645273 0.22789298 0.14616899 0.14923637
0.20066969 0.27105674 0.12851532 -0.0008603151 0.035518665 0.056776177 0.062263966 -0.11084576
-0.24228564 0.020335114 0.1757946 0.19762537 -0.5131868 -0.13320215 0.004917558 0.17307545
0.055448122 0.08344728 -0.28286147 0.22866839 0.0600036 0.30611432 0.23550503 -0.20614947
-0.26763415 0.21111014 -0.07666066 0.11390566 0.016202442 0.18698281 0.119111694 0.17410769
-0.6206786 -0.085588515 -0.37615854 0.124839835 0.16289255 -0.08969585 0.16915141 -0.01691845
0.059361715 0.08960617 0.0869887 -0.0077186516 0.11413183 0.054859452 0.20117046 0.1529465
0.15608954 -0.5933118 -0.48808232 -0.12123487 0.019581897 0.0108461315 0.016235156 0.007841644
0.103457816 0.023187775 0.2654192 -0.008039363 -0.03823607 0.14974338 0.2582584 0.18446258
-0.031175882 0.021549663 0.2112394 -0.026536902 -0.5190295 0.028897852 -0.033543132 -0.063805446

layers.2.bias f4 [128]
00000000: f292 513f 9edd cfbe 7f0f 3f3f 3f52 473f
00000010: b246 623f e7f3 a9bc 2b5e a23f b2aa 043f
00000020: 5de9 4b3f 777b c13e dd30 23bd c2e7 43bd
00000030: 2bdd 2f3f 8deb 86bd d24d 2c3f 3a7c d2bc
00000040: 53d9 8d3e 90f2 613e c538 1d3f 6bbf fc3e
00000050: b187 4a3f e997 4e3f e95d 8ebc 4e75 813d
00000060: d8ee 6abc 5a29 4cbb 30cf 073f 1c3e 6bbe
00000070: 7c84 233f bd1f 4e3f e250 5bbd f6af 1a3f
00000080: d502 c93e d0e8 373f c965 db3e 6c6a 50bd
00000090: bb6e 1f3f 241a 4b3f aa0e e93e 1070 403f
000000a0: 9617 603f 5829 38bf 2a8a 3c3f 84ce 0ebf
000000b0: 3058 4d3f 0109 503d e46a df3e 3d7b c9bc
000000c0: a0fa 843d 4bd1 863f 925c 8cbc 5ff6 443f
000000d0: 373d 453f 2b91 8ebe 9bf0 2c3d 424b 1f3f
000000e0: 08ee 463f 1604 723f 6e65 0d3f 7cd1 323f
000000f0: 75a6 503f 2f76 d53e 16b1 663d b762 023f
00000100: ad52 003f 075e 273f c05e 193f 5027 7c3f
00000110: bdaa b8be c0fe 88be d1c8 9b3f e567 4ebd
00000120: 6a2d 293f fa47 013f 365e 143f 11c2 0ebc
00000130: f38d 583f 3dda 17bb dd26 263e a61a 8f3d
00000140: 58c5 8b3d dcbc 8f3c 779b 22bf 80ea 5f3f
00000150: 52b1 423f 487d d43e e267 b33e c3b7 2e3f
00000160: c985 673f 4356 353f 5be3 4f3f dc59 813f
00000170: bd28 83bd b7c6 5abe 8a67 333f 6be9 963d
00000180: 40a0 233f 41a2 233f 0f5e 193f 34f0 193f
00000190: 6a5e 42bf 1dfc f5bb f9e4 6a3f 8fc9 263c
000001a0: 4952 ab3f 5ace acbc 4cc4 b43f a62b 123f
000001b0: 4193 2e3f 05ab 26ba 7dc0 a3bd 912d 5a3f
000001c0: 4182 82bc 6f1d 583f 963a 6b3f 25b6 b83e
000001d0: 0e6b d33b 8e59 383f b8fb 333f 8559 593f
000001e0: 1374 a7bd 8e54 2a3d ff77 713f 3153 9c3e
000001f0: f19f 7a3f e455 3c3f 2107 553f 346c e73d
0.81864846 -0.40598768 0.7463302 0.7785987 0.8838912 -0.020746185 1.2684988 0.5182296
0.7965296 0.3778951 -0.03984152 -0.047828443 0.6869685 -0.065878965 0.67306244 -0.025694001
0.27704868 0.22065187 0.6141475 0.4936479 0.791133 0.80700547 -0.017378764 0.06321202
-0.014339171 -0.0031152577 0.5305052 -0.22972912 0.6387403 0.8051718 -0.053543933 0.60424745
0.39259973 0.7183962 0.42851093 -0.05088274 0.62278336 0.7933676 0.45519 0.75170994
0.8753599 -0.71938086 0.7364832 -0.5578387 0.8021269 0.050789837 0.4363624 -0.024594897
0.064931154 1.0532621 -0.017133985 0.7693843 0.7704653 -0.2784513 0.042221647 0.6222421
0.77706957 0.94537485 0.55232894 0.698509 0.81503993 0.4169173 0.056321226 0.50931877
0.50126153 0.6537785 0.599102 0.98497486 -0.36067763 -0.2675686 1.2170659 -0.05039205
0.6608492 0.5050045 0.57956254 -0.008713261 0.845916 -0.0023170852 0.16225763 0.06987505
0.0682475 0.01754611 -0.6351847 0.87467194 0.7605182 0.41501832 0.35040194 0.6824915
0.90438515 0.7083475 0.8120629 1.0105548 -0.064042546 -0.21364866 0.70079863 0.0736874
0.639164 0.63919455 0.5990915 0.60132146 -0.75925314 -0.007506861 0.91755635 0.010179891
1.3384486 -0.02109449 1.4122405 0.5709785 0.6819344 -0.00063578814 -0.079956986 0.8522578
-0.01593125 0.8441991 0.9188627 0.36076465 0.006451971 0.7201165 0.7030597 0.8490222
-0.08176436 0.041584544 0.94323725 0.3053222 0.979003 0.7356856 0.83214 0.11299935

layers.4.weight f4 [9, 128]
00000000: 5f56 28be 4554 8bbe 4da4 81be 2d91 d1bd
00000010: 1a41 32be c803 70bd 9ded ca3f 8d86 0c3f
00000020: 7fac c5bd b76f 64bc 0e4d 39bd f9e4 1f3d
00000030: 3fd7 0bbe 0c1e 5cba 884a bbbd e623 e1bc
00000040: 53b5 33be 8269 b33b 2e3f b3bd e481 593a
00000050: efd4 0cbe c896 24bd 649f 09bd 6f3d c5bb
00000060: 6f03 8539 5c30 443d d25b 88bc b878 ccbd
00000070: 3bf4 da3e e959 d9bd 0b78 413d 3cc5 d7bc
00000080: 608f a0bc a535 4fbd 5f56 6fbe 61b9 773d
00000090: 67b9 d3bc adc6 53be dac8 ec3b 0dc2 d7bd
000000a0: 0bcd f53c ab58 22bf d067 f7bd 2fe4 86be
000000b0: b5c4 41be 9b9d 2dbd 32f3 fabc 206b df3b
000000c0: a249 633c 3378 38be d352 473d d479 0fbe
000000d0: 47d6 8bbd 511a 00bf b5d4 833e 32ff 6cbd
000000e0: 7298 97bd acf8 6fbe 3d95 b4bc 5f2d 33be
000000f0: 2d62 58be c52b fbbe c781 abbd d70e bdbd
00000100: 3c0f 16bd d845 ccbc bbc1 59bd ee2e 0cbe
00000110: c4f0 c83e 4f2b a6bd b210 c0be e30f 0fba
00000120: 1af9 99bd 3c50 d8bb 00e9 fcbc 0154 ccbc
00000130: 0775 f9bd 5f9b 663d 748b 153b 5270 39bd
00000140: ba5b 963d 8ce2 77bc d32b 1fbf 72fd debd
00000150: b686 f1bc 6d3f 05be cc29 cabd 11a6 28be
00000160: c848 fcbd bd57 52bd bb32 34be 201e 2cbe
00000170: 994e 963c 2bf6 5bbe fe85 eebd 3ebb a6bc
00000180: d2c1 9abd 1bce 98bd d68b 6abc 3d8f 56bd
00000190: ff0e 6fbe dc66 f03c b448 ddbd 6a54 2dbc
000001a0: 64e4 6dbe ca30 2bbd 8840 ef3e 6a4c 8ebd
000001b0: d5e6 1ebe ffb5 47bd 9fc9 373d 86d8 f2bd
000001c0: e181 5c3d 754a c3bd 9c91 cdbd 749a 0c3e
000001d0: a186 1dbd 8658 6dbd 4409 0fbe 493e 3cbe
000001e0: 7e8a b2bd 5c25 edb7 fc4e 20be 941c 2fbf
000001f0: dca0 01be 1698 93bd 1300 96bd 1ac4 b13c
00000200: 5a0d d4bd a5c9 b93d d2a9 8dbe c6a2 a1bd
00000210: cf9f 8cbd 3de5 b1bd c78f c03f b55a ca3e
00000220: c458 29be acbd 19bd 8d97 2e3d 3742 79bd
00000230: 355b eebd 2520 08bd bb53 9bbd 25bf a7bd
00000240: 81b5 43be fd10 87be b586 19be 7460 f6bd
00000250: c980 d5bd 399c 0ebe b998 79bd 816f b3bd
00000260: 67a1 5e3d 7b12 8d3d 3a95 babd a459 7fbd
00000270: 11f3 be3e 46c9 3fbe 75ed 85bc fb3f 69bd
00000280: 1577 babd ce82 c3bd 2ac5 bebd 4aec 573d
00000290: 1eb5 46be 00bf bdbd 1e91 ddbd 8334 70bd
000002a0: 9544 173e c642 8bbe 1264 0bbe bfe3 5d3d
000002b0: 4620 b2bd c1de 5a3d ec65 e3bd 0086 4bbd
000002c0: acb5 7cbd 4b7b cabd 1448 8f3d 2a3d 06be
000002d0: 0cfe cfbd e212 8f3d fe4d 913c e984 fabd
000002e0: 867b 1dbe 1e32 02be 2918 fdbd d246 7abd
000002f0: b55c 2abe 3e77 03bd 5a89 b4bb de24 b9bd
00000300: 573b eebd 495f 97bd c45c d7bd 4c07 f8bd
00000310: 5887 04bd df0c 35bd a70f 20be 543b 9cbc
00000320: cd1c bdbd 217b 0cbd 09b6 42be f176 643d
00000330: 9b53 4fbd 293e 193d 60a4 a0bd 8bb6 68bd
00000340: 5dea bbbc 6e24 a73d c0b8 88be c715 19be
00000350: c054 21be 1aee 5cbd c332 8dbe 4776 f0bd
00000360: 2f78 8ebd 12e2 cabd 8391 11be 2331 efbd
00000370: 299a 0bbd ada8 44bc 4ed6 22be 4d3b 8a3c
00000380: 8d05 b0bd bdad 1ebd 4bad e6bd 0c70 4cbd
00000390: 2c20 a43c bca0 c63c c71c 24be a4ea a0bc
000003a0: c6e9 9abe 9c27 483d b640 363f 7097 11bd
000003b0: 4e25 1dbe c3bb 553d b2e0 10bd 036a 57be
000003c0: 341a 143a 3ba7 10be 4073 a0bd c84c c03b
000003d0: 3e96 63bc c039 e5bd c40e 50bd da8a a8bd
000003e0: c048 f6bb 0d09 233d aa16 2dbe f43e b83d
000003f0: bb3a 2bbe 2802 b0bd 7dba f1bd dfca f5bd
-0.16439198 -0.2721273 -0.25320664 -0.10232768 -0.17407647 -0.058597356 1.5853764 0.5489281
-0.09652042 -0.0139426505 -0.0452395 0.039036725 -0.13656329 -0.00083968113 -0.09145075 -0.027482938
-0.17549638 0.005475224 -0.08752285 0.0008297248 -0.13753103 -0.04018286 -0.033599272 -0.0060192863
0.00025370295 0.04789768 -0.016645346 -0.09983963 0.42764458 -0.10612852 0.047233623 -0.026339166
-0.019599617 -0.05058827 -0.23372792 0.060479525 -0.025845243 -0.20681258 0.007226092 -0.10535059
0.030004999 -0.63416547 -0.120803475 -0.26345965 -0.18922694 -0.042386632 -0.030633543 0.00681819
0.013872536 -0.18014602 0.04866297 -0.14011317 -0.068279795 -0.50040156 0.2574822 -0.05786056
-0.074021235 -0.23434705 -0.022043819 -0.17497776 -0.21131201 -0.4905683 -0.083743624 -0.09231346
-0.036635622 -0.024935648 -0.05316327 -0.13689777 0.3924619 -0.08113729 -0.37512738 -0.00054573844
-0.075182155 -0.0066013616 -0.030872822 -0.0249424 -0.12180524 0.056300517 0.0022818716 -0.045273133
0.07341714 -0.015129697 -0.62176245 -0.108881846 -0.02948318 -0.13012476 -0.09871253 -0.164696
-0.123185694 -0.051353205 -0.17597477 -0.16808367 0.018348025 -0.21480624 -0.11646651 -0.020352956
-0.075564995 -0.074611865 -0.014315566 -0.052382696 -0.23345564 0.029345922 -0.10804883 -0.010579208
-0.23231655 -0.041794576 0.4672892 -0.069481686 -0.15517743 -0.04875755 0.044870015 -0.11857705
0.0538348 -0.09535686 -0.100375384 0.13730794 -0.03845847 -0.05794575 -0.13968378 -0.18383135
-0.087178215 -2.8269998e-05 -0.1565513 -0.6840298 -0.12659019 -0.072067425 -0.07324233 0.021699954
-0.10354109 0.09071664 -0.27668625 -0.07892375 -0.068664186 -0.08686302 1.5043877 0.3952233
-0.16537768 -0.0375344 0.042625 -0.060854163 -0.1163849 -0.03323378 -0.0758433 -0.08190755
-0.19112207 -0.2638015 -0.14992793 -0.12030116 -0.104249544 -0.13926782 -0.060936663 -0.08761502
0.054353144 0.068882905 -0.09110494 -0.062341347 0.3729482 -0.18729123 -0.01634858 -0.056945782
-0.09104744 -0.095464334 -0.0931495 0.052715577 -0.19405028 -0.09264946 -0.108186945 -0.05864383
0.14772256 -0.27199382 -0.13612393 0.054172274 -0.08697562 0.05343509 -0.111034244 -0.04968834
-0.061696693 -0.098867975 0.0699617 -0.1310927 -0.101558775 0.069860235 0.017737385 -0.12232382
-0.15379152 -0.1271443 -0.12358124 -0.061102696 -0.16636927 -0.03209614 -0.0055095376 -0.09040235
-0.11632412 -0.07391221 -0.105157405 -0.12110767 -0.032355636 -0.044201728 -0.15630971 -0.019071259
-0.09234009 -0.034297112 -0.19014753 0.055777494 -0.05061684 0.037412796 -0.07843852 -0.05681471
-0.022938902 0.08161245 -0.26703453 -0.14949714 -0.15754986 -0.05393801 -0.2757779 -0.117413096
-0.06956517 -0.09906401 -0.14215665 -0.11679294 -0.034082565 -0.012003106 -0.15902063 0.01687398
-0.08594809 -0.03873991 -0.11263522 -0.049911544 0.020034872 0.024246566 -0.16026603 -0.019643135
-0.3025648 0.0488659 0.7119249 -0.035544813 -0.15346262 0.052181017 -0.035370536 -0.21036534
0.00056496565 -0.14126293 -0.07834482 0.005868528 -0.013890801 -0.111926556 -0.05079533 -0.08229609
-0.0075159967 0.039803553 -0.16903177 0.08996382 -0.16721623 -0.08594161 -0.11803148 -0.12001585

layers.4.bias f4 [9]
00000000: a1b1 33bf c09f d9be 174e 35be 3ae2 15be
00000010: b579 37be 334a 563d 85f9 bbbe 7abc 44bf
00000020: 2a5e 8e3c
-0.70192915 -0.42504692 -0.1770557 -0.1463708 -0.17917521 0.052316856 -0.36713806 -0.7685009
0.017378885
